name: "Mobile_v2_512x512_face_test"
input: "data"
input_dim: 1
input_dim: 3
input_dim: 512
input_dim: 512
layer {
  name: "conv1"
  type: "Convolution"
  bottom: "data"
  top: "conv1"
  param {
    lr_mult: 1.0
    decay_mult: 1.0
  }
  convolution_param {
    num_output: 32
    bias_term: true
    pad: 1
    kernel_size: 3
    stride: 2
    weight_filler {
      type: "msra"
    }
  }
}
layer {
  name: "relu1"
  type: "ReLU"
  bottom: "conv1"
  top: "conv1"
}
layer {
  name: "conv2_1/expand"
  type: "Convolution"
  bottom: "conv1"
  top: "conv2_1/expand"
  param {
    lr_mult: 1.0
    decay_mult: 1.0
  }
  convolution_param {
    num_output: 32
    bias_term: true
    kernel_size: 1
    weight_filler {
      type: "msra"
    }
  }
}
layer {
  name: "relu2_1/expand"
  type: "ReLU"
  bottom: "conv2_1/expand"
  top: "conv2_1/expand"
}
layer {
  name: "conv2_1/dwise"
  type: "DepthwiseConvolution"
  bottom: "conv2_1/expand"
  top: "conv2_1/dwise"
  param {
    lr_mult: 1.0
    decay_mult: 1.0
  }
  convolution_param {
    num_output: 32
    bias_term: true
    pad: 1
    kernel_size: 3
    group: 32
    weight_filler {
      type: "msra"
    }
    engine: CAFFE
  }
}
layer {
  name: "relu2_1/dwise"
  type: "ReLU"
  bottom: "conv2_1/dwise"
  top: "conv2_1/dwise"
}
layer {
  name: "conv2_1/linear"
  type: "Convolution"
  bottom: "conv2_1/dwise"
  top: "conv2_1/linear"
  param {
    lr_mult: 1.0
    decay_mult: 1.0
  }
  convolution_param {
    num_output: 16
    bias_term: true
    kernel_size: 1
    weight_filler {
      type: "msra"
    }
  }
}
layer {
  name: "conv2_2/expand"
  type: "Convolution"
  bottom: "conv2_1/linear"
  top: "conv2_2/expand"
  param {
    lr_mult: 1.0
    decay_mult: 1.0
  }
  convolution_param {
    num_output: 96
    bias_term: true
    kernel_size: 1
    weight_filler {
      type: "msra"
    }
  }
}
layer {
  name: "relu2_2/expand"
  type: "ReLU"
  bottom: "conv2_2/expand"
  top: "conv2_2/expand"
}
layer {
  name: "conv2_2/dwise"
  type: "DepthwiseConvolution"
  bottom: "conv2_2/expand"
  top: "conv2_2/dwise"
  param {
    lr_mult: 1.0
    decay_mult: 1.0
  }
  convolution_param {
    num_output: 96
    bias_term: true
    pad: 1
    kernel_size: 3
    group: 96
    stride: 2
    weight_filler {
      type: "msra"
    }
    engine: CAFFE
  }
}
layer {
  name: "relu2_2/dwise"
  type: "ReLU"
  bottom: "conv2_2/dwise"
  top: "conv2_2/dwise"
}
layer {
  name: "conv2_2/linear"
  type: "Convolution"
  bottom: "conv2_2/dwise"
  top: "conv2_2/linear"
  param {
    lr_mult: 1.0
    decay_mult: 1.0
  }
  convolution_param {
    num_output: 24
    bias_term: true
    kernel_size: 1
    weight_filler {
      type: "msra"
    }
  }
}
layer {
  name: "conv3_1/expand"
  type: "Convolution"
  bottom: "conv2_2/linear"
  top: "conv3_1/expand"
  param {
    lr_mult: 1.0
    decay_mult: 1.0
  }
  convolution_param {
    num_output: 144
    bias_term: true
    kernel_size: 1
    weight_filler {
      type: "msra"
    }
  }
}
layer {
  name: "relu3_1/expand"
  type: "ReLU"
  bottom: "conv3_1/expand"
  top: "conv3_1/expand"
}
layer {
  name: "conv3_1/dwise"
  type: "DepthwiseConvolution"
  bottom: "conv3_1/expand"
  top: "conv3_1/dwise"
  param {
    lr_mult: 1.0
    decay_mult: 1.0
  }
  convolution_param {
    num_output: 144
    bias_term: true
    pad: 1
    kernel_size: 3
    group: 144
    weight_filler {
      type: "msra"
    }
    engine: CAFFE
  }
}
layer {
  name: "relu3_1/dwise"
  type: "ReLU"
  bottom: "conv3_1/dwise"
  top: "conv3_1/dwise"
}
layer {
  name: "conv3_1/linear"
  type: "Convolution"
  bottom: "conv3_1/dwise"
  top: "conv3_1/linear"
  param {
    lr_mult: 1.0
    decay_mult: 1.0
  }
  convolution_param {
    num_output: 24
    bias_term: true
    kernel_size: 1
    weight_filler {
      type: "msra"
    }
  }
}
layer {
  name: "block_3_1"
  type: "Eltwise"
  bottom: "conv2_2/linear"
  bottom: "conv3_1/linear"
  top: "block_3_1"
}
layer {
  name: "conv3_2/expand"
  type: "Convolution"
  bottom: "block_3_1"
  top: "conv3_2/expand"
  param {
    lr_mult: 1.0
    decay_mult: 1.0
  }
  convolution_param {
    num_output: 144
    bias_term: true
    kernel_size: 1
    weight_filler {
      type: "msra"
    }
  }
}
layer {
  name: "relu3_2/expand"
  type: "ReLU"
  bottom: "conv3_2/expand"
  top: "conv3_2/expand"
}
layer {
  name: "conv3_2/dwise"
  type: "DepthwiseConvolution"
  bottom: "conv3_2/expand"
  top: "conv3_2/dwise"
  param {
    lr_mult: 1.0
    decay_mult: 1.0
  }
  convolution_param {
    num_output: 144
    bias_term: true
    pad: 1
    kernel_size: 3
    group: 144
    stride: 2
    weight_filler {
      type: "msra"
    }
    engine: CAFFE
  }
}
layer {
  name: "relu3_2/dwise"
  type: "ReLU"
  bottom: "conv3_2/dwise"
  top: "conv3_2/dwise"
}
layer {
  name: "conv3_2/linear"
  type: "Convolution"
  bottom: "conv3_2/dwise"
  top: "conv3_2/linear"
  param {
    lr_mult: 1.0
    decay_mult: 1.0
  }
  convolution_param {
    num_output: 32
    bias_term: true
    kernel_size: 1
    weight_filler {
      type: "msra"
    }
  }
}
layer {
  name: "conv4_1/expand"
  type: "Convolution"
  bottom: "conv3_2/linear"
  top: "conv4_1/expand"
  param {
    lr_mult: 1.0
    decay_mult: 1.0
  }
  convolution_param {
    num_output: 192
    bias_term: true
    kernel_size: 1
    weight_filler {
      type: "msra"
    }
  }
}
layer {
  name: "relu4_1/expand"
  type: "ReLU"
  bottom: "conv4_1/expand"
  top: "conv4_1/expand"
}
layer {
  name: "conv4_1/dwise"
  type: "DepthwiseConvolution"
  bottom: "conv4_1/expand"
  top: "conv4_1/dwise"
  param {
    lr_mult: 1.0
    decay_mult: 1.0
  }
  convolution_param {
    num_output: 192
    bias_term: true
    pad: 1
    kernel_size: 3
    group: 192
    weight_filler {
      type: "msra"
    }
    engine: CAFFE
  }
}
layer {
  name: "relu4_1/dwise"
  type: "ReLU"
  bottom: "conv4_1/dwise"
  top: "conv4_1/dwise"
}
layer {
  name: "conv4_1/linear"
  type: "Convolution"
  bottom: "conv4_1/dwise"
  top: "conv4_1/linear"
  param {
    lr_mult: 1.0
    decay_mult: 1.0
  }
  convolution_param {
    num_output: 32
    bias_term: true
    kernel_size: 1
    weight_filler {
      type: "msra"
    }
  }
}
layer {
  name: "block_4_1"
  type: "Eltwise"
  bottom: "conv3_2/linear"
  bottom: "conv4_1/linear"
  top: "block_4_1"
}
layer {
  name: "conv4_2/expand"
  type: "Convolution"
  bottom: "block_4_1"
  top: "conv4_2/expand"
  param {
    lr_mult: 1.0
    decay_mult: 1.0
  }
  convolution_param {
    num_output: 192
    bias_term: true
    kernel_size: 1
    weight_filler {
      type: "msra"
    }
  }
}
layer {
  name: "relu4_2/expand"
  type: "ReLU"
  bottom: "conv4_2/expand"
  top: "conv4_2/expand"
}
layer {
  name: "conv4_2/dwise"
  type: "DepthwiseConvolution"
  bottom: "conv4_2/expand"
  top: "conv4_2/dwise"
  param {
    lr_mult: 1.0
    decay_mult: 1.0
  }
  convolution_param {
    num_output: 192
    bias_term: true
    pad: 1
    kernel_size: 3
    group: 192
    weight_filler {
      type: "msra"
    }
    engine: CAFFE
  }
}
layer {
  name: "relu4_2/dwise"
  type: "ReLU"
  bottom: "conv4_2/dwise"
  top: "conv4_2/dwise"
}
layer {
  name: "conv4_2/linear"
  type: "Convolution"
  bottom: "conv4_2/dwise"
  top: "conv4_2/linear"
  param {
    lr_mult: 1.0
    decay_mult: 1.0
  }
  convolution_param {
    num_output: 32
    bias_term: true
    kernel_size: 1
    weight_filler {
      type: "msra"
    }
  }
}
layer {
  name: "block_4_2"
  type: "Eltwise"
  bottom: "block_4_1"
  bottom: "conv4_2/linear"
  top: "block_4_2"
}
layer {
  name: "conv4_3/expand"
  type: "Convolution"
  bottom: "block_4_2"
  top: "conv4_3/expand"
  param {
    lr_mult: 1.0
    decay_mult: 1.0
  }
  convolution_param {
    num_output: 192
    bias_term: true
    kernel_size: 1
    weight_filler {
      type: "msra"
    }
  }
}
layer {
  name: "relu4_3/expand"
  type: "ReLU"
  bottom: "conv4_3/expand"
  top: "conv4_3/expand"
}
layer {
  name: "conv4_3/dwise"
  type: "DepthwiseConvolution"
  bottom: "conv4_3/expand"
  top: "conv4_3/dwise"
  param {
    lr_mult: 1.0
    decay_mult: 1.0
  }
  convolution_param {
    num_output: 192
    bias_term: true
    pad: 1
    kernel_size: 3
    group: 192
    weight_filler {
      type: "msra"
    }
    engine: CAFFE
  }
}
layer {
  name: "relu4_3/dwise"
  type: "ReLU"
  bottom: "conv4_3/dwise"
  top: "conv4_3/dwise"
}
layer {
  name: "conv4_3/linear"
  type: "Convolution"
  bottom: "conv4_3/dwise"
  top: "conv4_3/linear"
  param {
    lr_mult: 1.0
    decay_mult: 1.0
  }
  convolution_param {
    num_output: 64
    bias_term: true
    kernel_size: 1
    weight_filler {
      type: "msra"
    }
  }
}
layer {
  name: "conv4_4/expand"
  type: "Convolution"
  bottom: "conv4_3/linear"
  top: "conv4_4/expand"
  param {
    lr_mult: 1.0
    decay_mult: 1.0
  }
  convolution_param {
    num_output: 384
    bias_term: true
    kernel_size: 1
    weight_filler {
      type: "msra"
    }
  }
}
layer {
  name: "relu4_4/expand"
  type: "ReLU"
  bottom: "conv4_4/expand"
  top: "conv4_4/expand"
}
layer {
  name: "conv4_4/dwise"
  type: "DepthwiseConvolution"
  bottom: "conv4_4/expand"
  top: "conv4_4/dwise"
  param {
    lr_mult: 1.0
    decay_mult: 1.0
  }
  convolution_param {
    num_output: 384
    bias_term: true
    pad: 1
    kernel_size: 3
    group: 384
    weight_filler {
      type: "msra"
    }
    engine: CAFFE
  }
}
layer {
  name: "relu4_4/dwise"
  type: "ReLU"
  bottom: "conv4_4/dwise"
  top: "conv4_4/dwise"
}
layer {
  name: "conv4_4/linear"
  type: "Convolution"
  bottom: "conv4_4/dwise"
  top: "conv4_4/linear"
  param {
    lr_mult: 1.0
    decay_mult: 1.0
  }
  convolution_param {
    num_output: 64
    bias_term: true
    kernel_size: 1
    weight_filler {
      type: "msra"
    }
  }
}
layer {
  name: "block_4_4"
  type: "Eltwise"
  bottom: "conv4_3/linear"
  bottom: "conv4_4/linear"
  top: "block_4_4"
}
layer {
  name: "conv4_5/expand"
  type: "Convolution"
  bottom: "block_4_4"
  top: "conv4_5/expand"
  param {
    lr_mult: 1.0
    decay_mult: 1.0
  }
  convolution_param {
    num_output: 384
    bias_term: true
    kernel_size: 1
    weight_filler {
      type: "msra"
    }
  }
}
layer {
  name: "relu4_5/expand"
  type: "ReLU"
  bottom: "conv4_5/expand"
  top: "conv4_5/expand"
}
layer {
  name: "conv4_5/dwise"
  type: "DepthwiseConvolution"
  bottom: "conv4_5/expand"
  top: "conv4_5/dwise"
  param {
    lr_mult: 1.0
    decay_mult: 1.0
  }
  convolution_param {
    num_output: 384
    bias_term: true
    pad: 1
    kernel_size: 3
    group: 384
    weight_filler {
      type: "msra"
    }
    engine: CAFFE
  }
}
layer {
  name: "relu4_5/dwise"
  type: "ReLU"
  bottom: "conv4_5/dwise"
  top: "conv4_5/dwise"
}
layer {
  name: "conv4_5/linear"
  type: "Convolution"
  bottom: "conv4_5/dwise"
  top: "conv4_5/linear"
  param {
    lr_mult: 1.0
    decay_mult: 1.0
  }
  convolution_param {
    num_output: 64
    bias_term: true
    kernel_size: 1
    weight_filler {
      type: "msra"
    }
  }
}
layer {
  name: "block_4_5"
  type: "Eltwise"
  bottom: "block_4_4"
  bottom: "conv4_5/linear"
  top: "block_4_5"
}
layer {
  name: "conv4_6/expand"
  type: "Convolution"
  bottom: "block_4_5"
  top: "conv4_6/expand"
  param {
    lr_mult: 1.0
    decay_mult: 1.0
  }
  convolution_param {
    num_output: 384
    bias_term: true
    kernel_size: 1
    weight_filler {
      type: "msra"
    }
  }
}
layer {
  name: "relu4_6/expand"
  type: "ReLU"
  bottom: "conv4_6/expand"
  top: "conv4_6/expand"
}
layer {
  name: "conv4_6/dwise"
  type: "DepthwiseConvolution"
  bottom: "conv4_6/expand"
  top: "conv4_6/dwise"
  param {
    lr_mult: 1.0
    decay_mult: 1.0
  }
  convolution_param {
    num_output: 384
    bias_term: true
    pad: 1
    kernel_size: 3
    group: 384
    weight_filler {
      type: "msra"
    }
    engine: CAFFE
  }
}
layer {
  name: "relu4_6/dwise"
  type: "ReLU"
  bottom: "conv4_6/dwise"
  top: "conv4_6/dwise"
}
layer {
  name: "conv4_6/linear"
  type: "Convolution"
  bottom: "conv4_6/dwise"
  top: "conv4_6/linear"
  param {
    lr_mult: 1.0
    decay_mult: 1.0
  }
  convolution_param {
    num_output: 64
    bias_term: true
    kernel_size: 1
    weight_filler {
      type: "msra"
    }
  }
}
layer {
  name: "block_4_6"
  type: "Eltwise"
  bottom: "block_4_5"
  bottom: "conv4_6/linear"
  top: "block_4_6"
}
layer {
  name: "conv4_7/expand"
  type: "Convolution"
  bottom: "block_4_6"
  top: "conv4_7/expand"
  param {
    lr_mult: 1.0
    decay_mult: 1.0
  }
  convolution_param {
    num_output: 384
    bias_term: true
    kernel_size: 1
    weight_filler {
      type: "msra"
    }
  }
}
layer {
  name: "relu4_7/expand"
  type: "ReLU"
  bottom: "conv4_7/expand"
  top: "conv4_7/expand"
}
layer {
  name: "conv4_7/dwise"
  type: "DepthwiseConvolution"
  bottom: "conv4_7/expand"
  top: "conv4_7/dwise"
  param {
    lr_mult: 1.0
    decay_mult: 1.0
  }
  convolution_param {
    num_output: 384
    bias_term: true
    pad: 1
    kernel_size: 3
    group: 384
    stride: 2
    weight_filler {
      type: "msra"
    }
    engine: CAFFE
  }
}
layer {
  name: "relu4_7/dwise"
  type: "ReLU"
  bottom: "conv4_7/dwise"
  top: "conv4_7/dwise"
}
layer {
  name: "conv4_7/linear"
  type: "Convolution"
  bottom: "conv4_7/dwise"
  top: "conv4_7/linear"
  param {
    lr_mult: 1.0
    decay_mult: 1.0
  }
  convolution_param {
    num_output: 96
    bias_term: true
    kernel_size: 1
    weight_filler {
      type: "msra"
    }
  }
}
layer {
  name: "conv5_1/expand"
  type: "Convolution"
  bottom: "conv4_7/linear"
  top: "conv5_1/expand"
  param {
    lr_mult: 1.0
    decay_mult: 1.0
  }
  convolution_param {
    num_output: 576
    bias_term: true
    kernel_size: 1
    weight_filler {
      type: "msra"
    }
  }
}
layer {
  name: "relu5_1/expand"
  type: "ReLU"
  bottom: "conv5_1/expand"
  top: "conv5_1/expand"
}
layer {
  name: "conv5_1/dwise"
  type: "DepthwiseConvolution"
  bottom: "conv5_1/expand"
  top: "conv5_1/dwise"
  param {
    lr_mult: 1.0
    decay_mult: 1.0
  }
  convolution_param {
    num_output: 576
    bias_term: true
    pad: 1
    kernel_size: 3
    group: 576
    weight_filler {
      type: "msra"
    }
    engine: CAFFE
  }
}
layer {
  name: "relu5_1/dwise"
  type: "ReLU"
  bottom: "conv5_1/dwise"
  top: "conv5_1/dwise"
}
layer {
  name: "conv5_1/linear"
  type: "Convolution"
  bottom: "conv5_1/dwise"
  top: "conv5_1/linear"
  param {
    lr_mult: 1.0
    decay_mult: 1.0
  }
  convolution_param {
    num_output: 96
    bias_term: true
    kernel_size: 1
    weight_filler {
      type: "msra"
    }
  }
}
layer {
  name: "block_5_1"
  type: "Eltwise"
  bottom: "conv4_7/linear"
  bottom: "conv5_1/linear"
  top: "block_5_1"
}
layer {
  name: "conv5_2/expand"
  type: "Convolution"
  bottom: "block_5_1"
  top: "conv5_2/expand"
  param {
    lr_mult: 1.0
    decay_mult: 1.0
  }
  convolution_param {
    num_output: 576
    bias_term: true
    kernel_size: 1
    weight_filler {
      type: "msra"
    }
  }
}
layer {
  name: "relu5_2/expand"
  type: "ReLU"
  bottom: "conv5_2/expand"
  top: "conv5_2/expand"
}
layer {
  name: "conv5_2/dwise"
  type: "DepthwiseConvolution"
  bottom: "conv5_2/expand"
  top: "conv5_2/dwise"
  param {
    lr_mult: 1.0
    decay_mult: 1.0
  }
  convolution_param {
    num_output: 576
    bias_term: true
    pad: 1
    kernel_size: 3
    group: 576
    weight_filler {
      type: "msra"
    }
    engine: CAFFE
  }
}
layer {
  name: "relu5_2/dwise"
  type: "ReLU"
  bottom: "conv5_2/dwise"
  top: "conv5_2/dwise"
}
layer {
  name: "conv5_2/linear"
  type: "Convolution"
  bottom: "conv5_2/dwise"
  top: "conv5_2/linear"
  param {
    lr_mult: 1.0
    decay_mult: 1.0
  }
  convolution_param {
    num_output: 96
    bias_term: true
    kernel_size: 1
    weight_filler {
      type: "msra"
    }
  }
}
layer {
  name: "block_5_2"
  type: "Eltwise"
  bottom: "block_5_1"
  bottom: "conv5_2/linear"
  top: "block_5_2"
}
layer {
  name: "conv5_3/expand"
  type: "Convolution"
  bottom: "block_5_2"
  top: "conv5_3/expand"
  param {
    lr_mult: 1.0
    decay_mult: 1.0
  }
  convolution_param {
    num_output: 576
    bias_term: true
    kernel_size: 1
    weight_filler {
      type: "msra"
    }
  }
}
layer {
  name: "relu5_3/expand"
  type: "ReLU"
  bottom: "conv5_3/expand"
  top: "conv5_3/expand"
}
layer {
  name: "conv5_3/dwise"
  type: "DepthwiseConvolution"
  bottom: "conv5_3/expand"
  top: "conv5_3/dwise"
  param {
    lr_mult: 1.0
    decay_mult: 1.0
  }
  convolution_param {
    num_output: 576
    bias_term: true
    pad: 1
    kernel_size: 3
    group: 576
    stride: 2
    weight_filler {
      type: "msra"
    }
    engine: CAFFE
  }
}
layer {
  name: "relu5_3/dwise"
  type: "ReLU"
  bottom: "conv5_3/dwise"
  top: "conv5_3/dwise"
}
layer {
  name: "conv5_3/linear"
  type: "Convolution"
  bottom: "conv5_3/dwise"
  top: "conv5_3/linear"
  param {
    lr_mult: 1.0
    decay_mult: 1.0
  }
  convolution_param {
    num_output: 160
    bias_term: true
    kernel_size: 1
    weight_filler {
      type: "msra"
    }
  }
}
layer {
  name: "conv6_1/expand"
  type: "Convolution"
  bottom: "conv5_3/linear"
  top: "conv6_1/expand"
  param {
    lr_mult: 1.0
    decay_mult: 1.0
  }
  convolution_param {
    num_output: 960
    bias_term: true
    kernel_size: 1
    weight_filler {
      type: "msra"
    }
  }
}
layer {
  name: "relu6_1/expand"
  type: "ReLU"
  bottom: "conv6_1/expand"
  top: "conv6_1/expand"
}
layer {
  name: "conv6_1/dwise"
  type: "DepthwiseConvolution"
  bottom: "conv6_1/expand"
  top: "conv6_1/dwise"
  param {
    lr_mult: 1.0
    decay_mult: 1.0
  }
  convolution_param {
    num_output: 960
    bias_term: true
    pad: 1
    kernel_size: 3
    group: 960
    weight_filler {
      type: "msra"
    }
    engine: CAFFE
  }
}
layer {
  name: "relu6_1/dwise"
  type: "ReLU"
  bottom: "conv6_1/dwise"
  top: "conv6_1/dwise"
}
layer {
  name: "conv6_1/linear"
  type: "Convolution"
  bottom: "conv6_1/dwise"
  top: "conv6_1/linear"
  param {
    lr_mult: 1.0
    decay_mult: 1.0
  }
  convolution_param {
    num_output: 160
    bias_term: true
    kernel_size: 1
    weight_filler {
      type: "msra"
    }
  }
}
layer {
  name: "block_6_1"
  type: "Eltwise"
  bottom: "conv5_3/linear"
  bottom: "conv6_1/linear"
  top: "block_6_1"
}
layer {
  name: "conv6_2/expand"
  type: "Convolution"
  bottom: "block_6_1"
  top: "conv6_2/expand"
  param {
    lr_mult: 1.0
    decay_mult: 1.0
  }
  convolution_param {
    num_output: 960
    bias_term: true
    kernel_size: 1
    weight_filler {
      type: "msra"
    }
  }
}
layer {
  name: "relu6_2/expand"
  type: "ReLU"
  bottom: "conv6_2/expand"
  top: "conv6_2/expand"
}
layer {
  name: "conv6_2/dwise"
  type: "DepthwiseConvolution"
  bottom: "conv6_2/expand"
  top: "conv6_2/dwise"
  param {
    lr_mult: 1.0
    decay_mult: 1.0
  }
  convolution_param {
    num_output: 960
    bias_term: true
    pad: 1
    kernel_size: 3
    group: 960
    weight_filler {
      type: "msra"
    }
    engine: CAFFE
  }
}
layer {
  name: "relu6_2/dwise"
  type: "ReLU"
  bottom: "conv6_2/dwise"
  top: "conv6_2/dwise"
}
layer {
  name: "conv6_2/linear"
  type: "Convolution"
  bottom: "conv6_2/dwise"
  top: "conv6_2/linear"
  param {
    lr_mult: 1.0
    decay_mult: 1.0
  }
  convolution_param {
    num_output: 160
    bias_term: true
    kernel_size: 1
    weight_filler {
      type: "msra"
    }
  }
}
layer {
  name: "block_6_2"
  type: "Eltwise"
  bottom: "block_6_1"
  bottom: "conv6_2/linear"
  top: "block_6_2"
}
layer {
  name: "conv6_3/expand"
  type: "Convolution"
  bottom: "block_6_2"
  top: "conv6_3/expand"
  param {
    lr_mult: 1.0
    decay_mult: 1.0
  }
  convolution_param {
    num_output: 960
    bias_term: true
    kernel_size: 1
    weight_filler {
      type: "msra"
    }
  }
}
layer {
  name: "relu6_3/expand"
  type: "ReLU"
  bottom: "conv6_3/expand"
  top: "conv6_3/expand"
}
layer {
  name: "conv6_3/dwise"
  type: "DepthwiseConvolution"
  bottom: "conv6_3/expand"
  top: "conv6_3/dwise"
  param {
    lr_mult: 1.0
    decay_mult: 1.0
  }
  convolution_param {
    num_output: 960
    bias_term: true
    pad: 1
    kernel_size: 3
    group: 960
    stride: 2
    weight_filler {
      type: "msra"
    }
    engine: CAFFE
  }
}
layer {
  name: "relu6_3/dwise"
  type: "ReLU"
  bottom: "conv6_3/dwise"
  top: "conv6_3/dwise"
}
layer {
  name: "conv6_3/linear"
  type: "Convolution"
  bottom: "conv6_3/dwise"
  top: "conv6_3/linear"
  param {
    lr_mult: 1.0
    decay_mult: 1.0
  }
  convolution_param {
    num_output: 320
    bias_term: true
    kernel_size: 1
    weight_filler {
      type: "msra"
    }
  }
}

#####################################
layer {
  name: "conv7_1/expand"
  type: "Convolution"
  bottom: "conv6_3/linear"
  top: "conv7_1/expand"
  param {
    lr_mult: 1.0
    decay_mult: 1.0
  }
  convolution_param {
    num_output: 1280
    bias_term: true
    kernel_size: 1
    weight_filler {
      type: "msra"
    }
  }
}
layer {
  name: "relu7_1/expand"
  type: "ReLU"
  bottom: "conv7_1/expand"
  top: "conv7_1/expand"
}
layer {
  name: "conv7_1/dwise"
  type: "DepthwiseConvolution"
  bottom: "conv7_1/expand"
  top: "conv7_1/dwise"
  param {
    lr_mult: 1.0
    decay_mult: 1.0
  }
  convolution_param {
    num_output: 1280
    bias_term: true
    pad: 1
    kernel_size: 3
    group: 1280
    weight_filler {
      type: "msra"
    }
    engine: CAFFE
  }
}
layer {
  name: "relu7_1/dwise"
  type: "ReLU"
  bottom: "conv7_1/dwise"
  top: "conv7_1/dwise"
}
layer {
  name: "conv7_1/linear"
  type: "Convolution"
  bottom: "conv7_1/dwise"
  top: "conv7_1/linear"
  param {
    lr_mult: 1.0
    decay_mult: 1.0
  }
  convolution_param {
    num_output: 320
    bias_term: true
    kernel_size: 1
    weight_filler {
      type: "msra"
    }
  }
}
layer {
  name: "block_7_1"
  type: "Eltwise"
  bottom: "conv6_3/linear"
  bottom: "conv7_1/linear"
  top: "block_7_1"
}
layer {
  name: "conv7_2/expand"
  type: "Convolution"
  bottom: "block_7_1"
  top: "conv7_2/expand"
  param {
    lr_mult: 1.0
    decay_mult: 1.0
  }
  convolution_param {
    num_output: 1280
    bias_term: true
    kernel_size: 1
    weight_filler {
      type: "msra"
    }
  }
}
layer {
  name: "relu7_2/expand"
  type: "ReLU"
  bottom: "conv7_2/expand"
  top: "conv7_2/expand"
}
layer {
  name: "conv7_2/dwise"
  type: "DepthwiseConvolution"
  bottom: "conv7_2/expand"
  top: "conv7_2/dwise"
  param {
    lr_mult: 1.0
    decay_mult: 1.0
  }
  convolution_param {
    num_output: 1280
    bias_term: true
    pad: 1
    kernel_size: 3
    group: 1280
    stride: 2
    weight_filler {
      type: "msra"
    }
    engine: CAFFE
  }
}
layer {
  name: "relu7_2/dwise"
  type: "ReLU"
  bottom: "conv7_2/dwise"
  top: "conv7_2/dwise"
}
layer {
  name: "conv7_2/linear"
  type: "Convolution"
  bottom: "conv7_2/dwise"
  top: "conv7_2/linear"
  param {
    lr_mult: 1.0
    decay_mult: 1.0
  }
  convolution_param {
    num_output: 480
    bias_term: true
    kernel_size: 1
    weight_filler {
      type: "msra"
    }
  }
}

layer {
  name: "conv8_1/expand"
  type: "Convolution"
  bottom: "conv7_2/linear"
  top: "conv8_1/expand"
  param {
    lr_mult: 1.0
    decay_mult: 1.0
  }
  convolution_param {
    num_output: 1280
    bias_term: true
    kernel_size: 1
    weight_filler {
      type: "msra"
    }
  }
}
layer {
  name: "relu8_1/expand"
  type: "ReLU"
  bottom: "conv8_1/expand"
  top: "conv8_1/expand"
}
layer {
  name: "conv8_1/dwise"
  type: "DepthwiseConvolution"
  bottom: "conv8_1/expand"
  top: "conv8_1/dwise"
  param {
    lr_mult: 1.0
    decay_mult: 1.0
  }
  convolution_param {
    num_output: 1280
    bias_term: true
    pad: 1
    kernel_size: 3
    group: 1280
    weight_filler {
      type: "msra"
    }
    engine: CAFFE
  }
}
layer {
  name: "relu8_1/dwise"
  type: "ReLU"
  bottom: "conv8_1/dwise"
  top: "conv8_1/dwise"
}
layer {
  name: "conv8_1/linear"
  type: "Convolution"
  bottom: "conv8_1/dwise"
  top: "conv8_1/linear"
  param {
    lr_mult: 1.0
    decay_mult: 1.0
  }
  convolution_param {
    num_output: 480
    bias_term: true
    kernel_size: 1
    weight_filler {
      type: "msra"
    }
  }
}
layer {
  name: "block_8_1"
  type: "Eltwise"
  bottom: "conv7_2/linear"
  bottom: "conv8_1/linear"
  top: "block_8_1"
}
#####################################
layer {
  name: "TL7_1"
  type: "Convolution"
  bottom: "block_8_1"
  top: "TL7_1"
  param {
    lr_mult: 1.0
    decay_mult: 1.0
  }
  convolution_param {
    num_output: 128
    pad: 1
    kernel_size: 3
    stride: 1
    weight_filler {
      type: "xavier"
    }
    bias_filler {
      type: "constant"
      value: 0.0
    }
  }
}
layer {
  name: "TL7_1_relu"
  type: "ReLU"
  bottom: "TL7_1"
  top: "TL7_1"
}
layer {
  name: "TL7_2"
  type: "Convolution"
  bottom: "TL7_1"
  top: "TL7_2"
  param {
    lr_mult: 1.0
    decay_mult: 1.0
  }
  convolution_param {
    num_output: 128
    pad: 1
    kernel_size: 3
    stride: 1
    weight_filler {
      type: "xavier"
    }
    bias_filler {
      type: "constant"
      value: 0.0
    }
  }
}
layer {
  name: "TL7_2_relu"
  type: "ReLU"
  bottom: "TL7_2"
  top: "TL7_2"
}
layer {
  name: "P7"
  type: "Convolution"
  bottom: "TL7_2"
  top: "P7"
  param {
    lr_mult: 1.0
    decay_mult: 1.0
  }
  convolution_param {
    num_output: 128
    pad: 1
    kernel_size: 3
    stride: 1
    weight_filler {
      type: "xavier"
    }
    bias_filler {
      type: "constant"
      value: 0.0
    }
  }
}
layer {
  name: "P7_relu"
  type: "ReLU"
  bottom: "P7"
  top: "P7"
}
layer {
  name: "TL6_1_new"
  type: "Convolution"
  bottom: "block_7_1"
  top: "TL6_1"
  param {
    lr_mult: 1.0
    decay_mult: 1.0
  }
  convolution_param {
    num_output: 128
    pad: 1
    kernel_size: 3
    stride: 1
    weight_filler {
      type: "xavier"
    }
    bias_filler {
      type: "constant"
      value: 0.0
    }
  }
}
layer {
  name: "TL6_1_relu"
  type: "ReLU"
  bottom: "TL6_1"
  top: "TL6_1"
}
layer {
  name: "TL6_2"
  type: "Convolution"
  bottom: "TL6_1"
  top: "TL6_2"
  param {
    lr_mult: 1.0
    decay_mult: 1.0
  }
  convolution_param {
    num_output: 128
    pad: 1
    kernel_size: 3
    stride: 1
    weight_filler {
      type: "xavier"
    }
    bias_filler {
      type: "constant"
      value: 0.0
    }
  }
}
layer {
  name: "TL6_2_relu"
  type: "ReLU"
  bottom: "TL6_2"
  top: "TL6_2"
}
layer {
  name: "P7-up"
  type: "Deconvolution"
  bottom: "P7"
  top: "P7-up"
  param {
    lr_mult: 1.0
    decay_mult: 1.0
  }
  convolution_param {
    num_output: 128
    pad: 0
    kernel_size: 2
    stride: 2
    weight_filler {
      type: "xavier"
    }
    bias_filler {
      type: "constant"
      value: 0.0
    }
  }
}
layer {
  name: "Elt6"
  type: "Eltwise"
  bottom: "TL6_2"
  bottom: "P7-up"
  top: "Elt6"
}
layer {
  name: "Elt6_relu"
  type: "ReLU"
  bottom: "Elt6"
  top: "Elt6"
}
layer {
  name: "P6"
  type: "Convolution"
  bottom: "Elt6"
  top: "P6"
  param {
    lr_mult: 1.0
    decay_mult: 1.0
  }
  convolution_param {
    num_output: 128
    pad: 1
    kernel_size: 3
    stride: 1
    weight_filler {
      type: "xavier"
    }
    bias_filler {
      type: "constant"
      value: 0.0
    }
  }
}
layer {
  name: "P6_relu"
  type: "ReLU"
  bottom: "P6"
  top: "P6"
}
layer {
  name: "TL5_1_new"
  type: "Convolution"
  bottom: "block_6_2"
  top: "TL5_1"
  param {
    lr_mult: 1.0
    decay_mult: 1.0
  }
  convolution_param {
    num_output: 128
    pad: 1
    kernel_size: 3
    stride: 1
    weight_filler {
      type: "xavier"
    }
    bias_filler {
      type: "constant"
      value: 0.0
    }
  }
}
layer {
  name: "TL5_1_relu"
  type: "ReLU"
  bottom: "TL5_1"
  top: "TL5_1"
}
layer {
  name: "TL5_2"
  type: "Convolution"
  bottom: "TL5_1"
  top: "TL5_2"
  param {
    lr_mult: 1.0
    decay_mult: 1.0
  }
  convolution_param {
    num_output: 128
    pad: 1
    kernel_size: 3
    stride: 1
    weight_filler {
      type: "xavier"
    }
    bias_filler {
      type: "constant"
      value: 0.0
    }
  }
}
layer {
  name: "P6-up"
  type: "Deconvolution"
  bottom: "P6"
  top: "P6-up"
  param {
    lr_mult: 1.0
    decay_mult: 1.0
  }
  convolution_param {
    num_output: 128
    pad: 0
    kernel_size: 2
    stride: 2
    weight_filler {
      type: "xavier"
    }
    bias_filler {
      type: "constant"
      value: 0.0
    }
  }
}
layer {
  name: "Elt5"
  type: "Eltwise"
  bottom: "TL5_2"
  bottom: "P6-up"
  top: "Elt5"
}
layer {
  name: "Elt5_relu"
  type: "ReLU"
  bottom: "Elt5"
  top: "Elt5"
}
layer {
  name: "P5"
  type: "Convolution"
  bottom: "Elt5"
  top: "P5"
  param {
    lr_mult: 1.0
    decay_mult: 1.0
  }
  convolution_param {
    num_output: 128
    pad: 1
    kernel_size: 3
    stride: 1
    weight_filler {
      type: "xavier"
    }
    bias_filler {
      type: "constant"
      value: 0.0
    }
  }
}
layer {
  name: "P5_relu"
  type: "ReLU"
  bottom: "P5"
  top: "P5"
}
layer {
  name: "block_5_2_norm"
  type: "Normalize"
  bottom: "block_5_2"
  top: "block_5_2_norm"
  norm_param {
    across_spatial: false
    scale_filler {
      type: "constant"
      value: 8.0
    }
    channel_shared: false
  }
}
layer {
  name: "TL4_1"
  type: "Convolution"
  bottom: "block_5_2_norm"
  top: "TL4_1"
  param {
    lr_mult: 1.0
    decay_mult: 1.0
  }
  convolution_param {
    num_output: 128
    pad: 1
    kernel_size: 3
    stride: 1
    weight_filler {
      type: "xavier"
    }
    bias_filler {
      type: "constant"
      value: 0.0
    }
  }
}
layer {
  name: "TL4_1_relu"
  type: "ReLU"
  bottom: "TL4_1"
  top: "TL4_1"
}
layer {
  name: "TL4_2"
  type: "Convolution"
  bottom: "TL4_1"
  top: "TL4_2"
  param {
    lr_mult: 1.0
    decay_mult: 1.0
  }
  convolution_param {
    num_output: 128
    pad: 1
    kernel_size: 3
    stride: 1
    weight_filler {
      type: "xavier"
    }
    bias_filler {
      type: "constant"
      value: 0.0
    }
  }
}
layer {
  name: "P5-up"
  type: "Deconvolution"
  bottom: "P5"
  top: "P5-up"
  param {
    lr_mult: 1.0
    decay_mult: 1.0
  }
  convolution_param {
    num_output: 128
    pad: 0
    kernel_size: 2
    stride: 2
    weight_filler {
      type: "xavier"
    }
    bias_filler {
      type: "constant"
      value: 0.0
    }
  }
}
layer {
  name: "Elt4"
  type: "Eltwise"
  bottom: "TL4_2"
  bottom: "P5-up"
  top: "Elt4"
}
layer {
  name: "Elt4_relu"
  type: "ReLU"
  bottom: "Elt4"
  top: "Elt4"
}
layer {
  name: "P4"
  type: "Convolution"
  bottom: "Elt4"
  top: "P4"
  param {
    lr_mult: 1.0
    decay_mult: 1.0
  }
  convolution_param {
    num_output: 128
    pad: 1
    kernel_size: 3
    stride: 1
    weight_filler {
      type: "xavier"
    }
    bias_filler {
      type: "constant"
      value: 0.0
    }
  }
}
layer {
  name: "P4_relu"
  type: "ReLU"
  bottom: "P4"
  top: "P4"
}
layer {
  name: "block_4_6_norm"
  type: "Normalize"
  bottom: "block_4_6"
  top: "block_4_6_norm"
  norm_param {
    across_spatial: false
    scale_filler {
      type: "constant"
      value: 10.0
    }
    channel_shared: false
  }
}
layer {
  name: "TL3_1"
  type: "Convolution"
  bottom: "block_4_6_norm"
  top: "TL3_1"
  param {
    lr_mult: 1.0
    decay_mult: 1.0
  }
  convolution_param {
    num_output: 128
    pad: 1
    kernel_size: 3
    stride: 1
    weight_filler {
      type: "xavier"
    }
    bias_filler {
      type: "constant"
      value: 0.0
    }
  }
}
layer {
  name: "TL3_1_relu"
  type: "ReLU"
  bottom: "TL3_1"
  top: "TL3_1"
}
layer {
  name: "TL3_2"
  type: "Convolution"
  bottom: "TL3_1"
  top: "TL3_2"
  param {
    lr_mult: 1.0
    decay_mult: 1.0
  }
  convolution_param {
    num_output: 128
    pad: 1
    kernel_size: 3
    stride: 1
    weight_filler {
      type: "xavier"
    }
    bias_filler {
      type: "constant"
      value: 0.0
    }
  }
}
layer {
  name: "P4-up"
  type: "Deconvolution"
  bottom: "P4"
  top: "P4-up"
  param {
    lr_mult: 1.0
    decay_mult: 1.0
  }
  convolution_param {
    num_output: 128
    pad: 0
    kernel_size: 2
    stride: 2
    weight_filler {
      type: "xavier"
    }
    bias_filler {
      type: "constant"
      value: 0.0
    }
  }
}
layer {
  name: "Elt3"
  type: "Eltwise"
  bottom: "TL3_2"
  bottom: "P4-up"
  top: "Elt3"
}
layer {
  name: "Elt3_relu"
  type: "ReLU"
  bottom: "Elt3"
  top: "Elt3"
}
layer {
  name: "P3"
  type: "Convolution"
  bottom: "Elt3"
  top: "P3"
  param {
    lr_mult: 1.0
    decay_mult: 1.0
  }
  convolution_param {
    num_output: 128
    pad: 1
    kernel_size: 3
    stride: 1
    weight_filler {
      type: "xavier"
    }
    bias_filler {
      type: "constant"
      value: 0.0
    }
  }
}
layer {
  name: "P3_relu"
  type: "ReLU"
  bottom: "P3"
  top: "P3"
}
layer {
  name: "block_4_6_norm_mbox_loc"
  type: "Convolution"
  bottom: "block_4_6_norm"
  top: "block_4_6_norm_mbox_loc"
  param {
    lr_mult: 1.0
    decay_mult: 1.0
  }
  convolution_param {
    num_output: 12
    pad: 1
    kernel_size: 3
    stride: 1
    weight_filler {
      type: "xavier"
    }
    bias_filler {
      type: "constant"
      value: 0.0
    }
  }
}
layer {
  name: "block_4_6_norm_mbox_loc_perm"
  type: "Permute"
  bottom: "block_4_6_norm_mbox_loc"
  top: "block_4_6_norm_mbox_loc_perm"
  permute_param {
    order: 0
    order: 2
    order: 3
    order: 1
  }
}
layer {
  name: "block_4_6_norm_mbox_loc_flat"
  type: "Flatten"
  bottom: "block_4_6_norm_mbox_loc_perm"
  top: "block_4_6_norm_mbox_loc_flat"
  flatten_param {
    axis: 1
  }
}
layer {
  name: "block_4_6_norm_mbox_conf"
  type: "Convolution"
  bottom: "block_4_6_norm"
  top: "block_4_6_norm_mbox_conf"
  param {
    lr_mult: 1.0
    decay_mult: 1.0
  }
  convolution_param {
    num_output: 6
    pad: 1
    kernel_size: 3
    stride: 1
    weight_filler {
      type: "xavier"
    }
    bias_filler {
      type: "constant"
      value: 0.0
    }
  }
}
layer {
  name: "block_4_6_norm_mbox_conf_perm"
  type: "Permute"
  bottom: "block_4_6_norm_mbox_conf"
  top: "block_4_6_norm_mbox_conf_perm"
  permute_param {
    order: 0
    order: 2
    order: 3
    order: 1
  }
}
layer {
  name: "block_4_6_norm_mbox_conf_flat"
  type: "Flatten"
  bottom: "block_4_6_norm_mbox_conf_perm"
  top: "block_4_6_norm_mbox_conf_flat"
  flatten_param {
    axis: 1
  }
}
layer {
  name: "block_4_6_norm_mbox_priorbox"
  type: "PriorBox"
  bottom: "block_4_6_norm"
  bottom: "data"
  top: "block_4_6_norm_mbox_priorbox"
  prior_box_param {
    min_size: 16.0
    aspect_ratio: 2.0
    flip: true
    clip: false
    variance: 0.10000000149
    variance: 0.10000000149
    variance: 0.20000000298
    variance: 0.20000000298
    step: 8.0
    offset: 0.5
  }
}
layer {
  name: "block_5_2_norm_mbox_loc"
  type: "Convolution"
  bottom: "block_5_2_norm"
  top: "block_5_2_norm_mbox_loc"
  param {
    lr_mult: 1.0
    decay_mult: 1.0
  }
  convolution_param {
    num_output: 12
    pad: 1
    kernel_size: 3
    stride: 1
    weight_filler {
      type: "xavier"
    }
    bias_filler {
      type: "constant"
      value: 0.0
    }
  }
}
layer {
  name: "block_5_2_norm_mbox_loc_perm"
  type: "Permute"
  bottom: "block_5_2_norm_mbox_loc"
  top: "block_5_2_norm_mbox_loc_perm"
  permute_param {
    order: 0
    order: 2
    order: 3
    order: 1
  }
}
layer {
  name: "block_5_2_norm_mbox_loc_flat"
  type: "Flatten"
  bottom: "block_5_2_norm_mbox_loc_perm"
  top: "block_5_2_norm_mbox_loc_flat"
  flatten_param {
    axis: 1
  }
}
layer {
  name: "block_5_2_norm_mbox_conf"
  type: "Convolution"
  bottom: "block_5_2_norm"
  top: "block_5_2_norm_mbox_conf"
  param {
    lr_mult: 1.0
    decay_mult: 1.0
  }
  convolution_param {
    num_output: 6
    pad: 1
    kernel_size: 3
    stride: 1
    weight_filler {
      type: "xavier"
    }
    bias_filler {
      type: "constant"
      value: 0.0
    }
  }
}
layer {
  name: "block_5_2_norm_mbox_conf_perm"
  type: "Permute"
  bottom: "block_5_2_norm_mbox_conf"
  top: "block_5_2_norm_mbox_conf_perm"
  permute_param {
    order: 0
    order: 2
    order: 3
    order: 1
  }
}
layer {
  name: "block_5_2_norm_mbox_conf_flat"
  type: "Flatten"
  bottom: "block_5_2_norm_mbox_conf_perm"
  top: "block_5_2_norm_mbox_conf_flat"
  flatten_param {
    axis: 1
  }
}
layer {
  name: "block_5_2_norm_mbox_priorbox"
  type: "PriorBox"
  bottom: "block_5_2_norm"
  bottom: "data"
  top: "block_5_2_norm_mbox_priorbox"
  prior_box_param {
    min_size: 76.0
    aspect_ratio: 2.0
    flip: true
    clip: false
    variance: 0.10000000149
    variance: 0.10000000149
    variance: 0.20000000298
    variance: 0.20000000298
    step: 16.0
    offset: 0.5
  }
}
layer {
  name: "block_6_2_mbox_loc"
  type: "Convolution"
  bottom: "block_6_2"
  top: "block_6_2_mbox_loc"
  param {
    lr_mult: 1.0
    decay_mult: 1.0
  }
  convolution_param {
    num_output: 12
    pad: 1
    kernel_size: 3
    stride: 1
    weight_filler {
      type: "xavier"
    }
    bias_filler {
      type: "constant"
      value: 0.0
    }
  }
}
layer {
  name: "block_6_2_mbox_loc_perm"
  type: "Permute"
  bottom: "block_6_2_mbox_loc"
  top: "block_6_2_mbox_loc_perm"
  permute_param {
    order: 0
    order: 2
    order: 3
    order: 1
  }
}
layer {
  name: "block_6_2_mbox_loc_flat"
  type: "Flatten"
  bottom: "block_6_2_mbox_loc_perm"
  top: "block_6_2_mbox_loc_flat"
  flatten_param {
    axis: 1
  }
}
layer {
  name: "block_6_2_mbox_conf"
  type: "Convolution"
  bottom: "block_6_2"
  top: "block_6_2_mbox_conf"
  param {
    lr_mult: 1.0
    decay_mult: 1.0
  }
  convolution_param {
    num_output: 6
    pad: 1
    kernel_size: 3
    stride: 1
    weight_filler {
      type: "xavier"
    }
    bias_filler {
      type: "constant"
      value: 0.0
    }
  }
}
layer {
  name: "block_6_2_mbox_conf_perm"
  type: "Permute"
  bottom: "block_6_2_mbox_conf"
  top: "block_6_2_mbox_conf_perm"
  permute_param {
    order: 0
    order: 2
    order: 3
    order: 1
  }
}
layer {
  name: "block_6_2_mbox_conf_flat"
  type: "Flatten"
  bottom: "block_6_2_mbox_conf_perm"
  top: "block_6_2_mbox_conf_flat"
  flatten_param {
    axis: 1
  }
}
layer {
  name: "block_6_2_mbox_priorbox"
  type: "PriorBox"
  bottom: "block_6_2"
  bottom: "data"
  top: "block_6_2_mbox_priorbox"
  prior_box_param {
    min_size: 136.0
    aspect_ratio: 2.0
    flip: true
    clip: false
    variance: 0.10000000149
    variance: 0.10000000149
    variance: 0.20000000298
    variance: 0.20000000298
    step: 32.0
    offset: 0.5
  }
}
layer {
  name: "block_7_1_mbox_loc"
  type: "Convolution"
  bottom: "block_7_1"
  top: "block_7_1_mbox_loc"
  param {
    lr_mult: 1.0
    decay_mult: 1.0
  }
  convolution_param {
    num_output: 12
    pad: 1
    kernel_size: 3
    stride: 1
    weight_filler {
      type: "xavier"
    }
    bias_filler {
      type: "constant"
      value: 0.0
    }
  }
}
layer {
  name: "block_7_1_mbox_loc_perm"
  type: "Permute"
  bottom: "block_7_1_mbox_loc"
  top: "block_7_1_mbox_loc_perm"
  permute_param {
    order: 0
    order: 2
    order: 3
    order: 1
  }
}
layer {
  name: "block_7_1_mbox_loc_flat"
  type: "Flatten"
  bottom: "block_7_1_mbox_loc_perm"
  top: "block_7_1_mbox_loc_flat"
  flatten_param {
    axis: 1
  }
}
layer {
  name: "block_7_1_mbox_conf"
  type: "Convolution"
  bottom: "block_7_1"
  top: "block_7_1_mbox_conf"
  param {
    lr_mult: 1.0
    decay_mult: 1.0
  }
  convolution_param {
    num_output: 6
    pad: 1
    kernel_size: 3
    stride: 1
    weight_filler {
      type: "xavier"
    }
    bias_filler {
      type: "constant"
      value: 0.0
    }
  }
}
layer {
  name: "block_7_1_mbox_conf_perm"
  type: "Permute"
  bottom: "block_7_1_mbox_conf"
  top: "block_7_1_mbox_conf_perm"
  permute_param {
    order: 0
    order: 2
    order: 3
    order: 1
  }
}
layer {
  name: "block_7_1_mbox_conf_flat"
  type: "Flatten"
  bottom: "block_7_1_mbox_conf_perm"
  top: "block_7_1_mbox_conf_flat"
  flatten_param {
    axis: 1
  }
}
layer {
  name: "block_7_1_mbox_priorbox"
  type: "PriorBox"
  bottom: "block_7_1"
  bottom: "data"
  top: "block_7_1_mbox_priorbox"
  prior_box_param {
    min_size: 196.0
    aspect_ratio: 2.0
    flip: true
    clip: false
    variance: 0.10000000149
    variance: 0.10000000149
    variance: 0.20000000298
    variance: 0.20000000298
    step: 64.0
    offset: 0.5
  }
}
layer {
  name: "block_8_1_mbox_loc"
  type: "Convolution"
  bottom: "block_8_1"
  top: "block_8_1_mbox_loc"
  param {
    lr_mult: 1.0
    decay_mult: 1.0
  }
  convolution_param {
    num_output: 12
    pad: 1
    kernel_size: 3
    stride: 1
    weight_filler {
      type: "xavier"
    }
    bias_filler {
      type: "constant"
      value: 0.0
    }
  }
}
layer {
  name: "block_8_1_mbox_loc_perm"
  type: "Permute"
  bottom: "block_8_1_mbox_loc"
  top: "block_8_1_mbox_loc_perm"
  permute_param {
    order: 0
    order: 2
    order: 3
    order: 1
  }
}
layer {
  name: "block_8_1_mbox_loc_flat"
  type: "Flatten"
  bottom: "block_8_1_mbox_loc_perm"
  top: "block_8_1_mbox_loc_flat"
  flatten_param {
    axis: 1
  }
}
layer {
  name: "block_8_1_mbox_conf"
  type: "Convolution"
  bottom: "block_8_1"
  top: "block_8_1_mbox_conf"
  param {
    lr_mult: 1.0
    decay_mult: 1.0
  }
  convolution_param {
    num_output: 6
    pad: 1
    kernel_size: 3
    stride: 1
    weight_filler {
      type: "xavier"
    }
    bias_filler {
      type: "constant"
      value: 0.0
    }
  }
}
layer {
  name: "block_8_1_mbox_conf_perm"
  type: "Permute"
  bottom: "block_8_1_mbox_conf"
  top: "block_8_1_mbox_conf_perm"
  permute_param {
    order: 0
    order: 2
    order: 3
    order: 1
  }
}
layer {
  name: "block_8_1_mbox_conf_flat"
  type: "Flatten"
  bottom: "block_8_1_mbox_conf_perm"
  top: "block_8_1_mbox_conf_flat"
  flatten_param {
    axis: 1
  }
}
layer {
  name: "block_8_1_mbox_priorbox"
  type: "PriorBox"
  bottom: "block_8_1"
  bottom: "data"
  top: "block_8_1_mbox_priorbox"
  prior_box_param {
    min_size: 256.0
    aspect_ratio: 2.0
    flip: true
    clip: false
    variance: 0.10000000149
    variance: 0.10000000149
    variance: 0.20000000298
    variance: 0.20000000298
    step: 128.0
    offset: 0.5
  }
}
layer {
  name: "arm_loc"
  type: "Concat"
  bottom: "block_4_6_norm_mbox_loc_flat"
  bottom: "block_5_2_norm_mbox_loc_flat"
  bottom: "block_6_2_mbox_loc_flat"
  bottom: "block_7_1_mbox_loc_flat"
  bottom: "block_8_1_mbox_loc_flat"
  top: "arm_loc"
  concat_param {
    axis: 1
  }
}
layer {
  name: "arm_conf"
  type: "Concat"
  bottom: "block_4_6_norm_mbox_conf_flat"
  bottom: "block_5_2_norm_mbox_conf_flat"
  bottom: "block_6_2_mbox_conf_flat"
  bottom: "block_7_1_mbox_conf_flat"
  bottom: "block_8_1_mbox_conf_flat"
  top: "arm_conf"
  concat_param {
    axis: 1
  }
}
layer {
  name: "arm_priorbox"
  type: "Concat"
  bottom: "block_4_6_norm_mbox_priorbox"
  bottom: "block_5_2_norm_mbox_priorbox"
  bottom: "block_6_2_mbox_priorbox"
  bottom: "block_7_1_mbox_priorbox"
  bottom: "block_8_1_mbox_priorbox"
  top: "arm_priorbox"
  concat_param {
    axis: 2
  }
}
layer {
  name: "P3_mbox_loc"
  type: "Convolution"
  bottom: "P3"
  top: "P3_mbox_loc"
  param {
    lr_mult: 1.0
    decay_mult: 1.0
  }
  convolution_param {
    num_output: 12
    pad: 1
    kernel_size: 3
    stride: 1
    weight_filler {
      type: "xavier"
    }
    bias_filler {
      type: "constant"
      value: 0.0
    }
  }
}
layer {
  name: "P3_mbox_loc_perm"
  type: "Permute"
  bottom: "P3_mbox_loc"
  top: "P3_mbox_loc_perm"
  permute_param {
    order: 0
    order: 2
    order: 3
    order: 1
  }
}
layer {
  name: "P3_mbox_loc_flat"
  type: "Flatten"
  bottom: "P3_mbox_loc_perm"
  top: "P3_mbox_loc_flat"
  flatten_param {
    axis: 1
  }
}
layer {
  name: "P3_mbox_conf_face"
  type: "Convolution"
  bottom: "P3"
  top: "P3_mbox_conf"
  param {
    lr_mult: 1.0
    decay_mult: 1.0
  }
  convolution_param {
    num_output: 6
    pad: 1
    kernel_size: 3
    stride: 1
    weight_filler {
      type: "xavier"
    }
    bias_filler {
      type: "constant"
      value: 0.0
    }
  }
}
layer {
  name: "P3_mbox_conf_perm"
  type: "Permute"
  bottom: "P3_mbox_conf"
  top: "P3_mbox_conf_perm"
  permute_param {
    order: 0
    order: 2
    order: 3
    order: 1
  }
}
layer {
  name: "P3_mbox_conf_flat"
  type: "Flatten"
  bottom: "P3_mbox_conf_perm"
  top: "P3_mbox_conf_flat"
  flatten_param {
    axis: 1
  }
}
layer {
  name: "P4_mbox_loc"
  type: "Convolution"
  bottom: "P4"
  top: "P4_mbox_loc"
  param {
    lr_mult: 1.0
    decay_mult: 1.0
  }
  convolution_param {
    num_output: 12
    pad: 1
    kernel_size: 3
    stride: 1
    weight_filler {
      type: "xavier"
    }
    bias_filler {
      type: "constant"
      value: 0.0
    }
  }
}
layer {
  name: "P4_mbox_loc_perm"
  type: "Permute"
  bottom: "P4_mbox_loc"
  top: "P4_mbox_loc_perm"
  permute_param {
    order: 0
    order: 2
    order: 3
    order: 1
  }
}
layer {
  name: "P4_mbox_loc_flat"
  type: "Flatten"
  bottom: "P4_mbox_loc_perm"
  top: "P4_mbox_loc_flat"
  flatten_param {
    axis: 1
  }
}
layer {
  name: "P4_mbox_conf_face"
  type: "Convolution"
  bottom: "P4"
  top: "P4_mbox_conf"
  param {
    lr_mult: 1.0
    decay_mult: 1.0
  }
  convolution_param {
    num_output: 6
    pad: 1
    kernel_size: 3
    stride: 1
    weight_filler {
      type: "xavier"
    }
    bias_filler {
      type: "constant"
      value: 0.0
    }
  }
}
layer {
  name: "P4_mbox_conf_perm"
  type: "Permute"
  bottom: "P4_mbox_conf"
  top: "P4_mbox_conf_perm"
  permute_param {
    order: 0
    order: 2
    order: 3
    order: 1
  }
}
layer {
  name: "P4_mbox_conf_flat"
  type: "Flatten"
  bottom: "P4_mbox_conf_perm"
  top: "P4_mbox_conf_flat"
  flatten_param {
    axis: 1
  }
}
layer {
  name: "P5_mbox_loc"
  type: "Convolution"
  bottom: "P5"
  top: "P5_mbox_loc"
  param {
    lr_mult: 1.0
    decay_mult: 1.0
  }
  convolution_param {
    num_output: 12
    pad: 1
    kernel_size: 3
    stride: 1
    weight_filler {
      type: "xavier"
    }
    bias_filler {
      type: "constant"
      value: 0.0
    }
  }
}
layer {
  name: "P5_mbox_loc_perm"
  type: "Permute"
  bottom: "P5_mbox_loc"
  top: "P5_mbox_loc_perm"
  permute_param {
    order: 0
    order: 2
    order: 3
    order: 1
  }
}
layer {
  name: "P5_mbox_loc_flat"
  type: "Flatten"
  bottom: "P5_mbox_loc_perm"
  top: "P5_mbox_loc_flat"
  flatten_param {
    axis: 1
  }
}
layer {
  name: "P5_mbox_conf_face"
  type: "Convolution"
  bottom: "P5"
  top: "P5_mbox_conf"
  param {
    lr_mult: 1.0
    decay_mult: 1.0
  }
  convolution_param {
    num_output: 6
    pad: 1
    kernel_size: 3
    stride: 1
    weight_filler {
      type: "xavier"
    }
    bias_filler {
      type: "constant"
      value: 0.0
    }
  }
}
layer {
  name: "P5_mbox_conf_perm"
  type: "Permute"
  bottom: "P5_mbox_conf"
  top: "P5_mbox_conf_perm"
  permute_param {
    order: 0
    order: 2
    order: 3
    order: 1
  }
}
layer {
  name: "P5_mbox_conf_flat"
  type: "Flatten"
  bottom: "P5_mbox_conf_perm"
  top: "P5_mbox_conf_flat"
  flatten_param {
    axis: 1
  }
}
layer {
  name: "P6_mbox_loc"
  type: "Convolution"
  bottom: "P6"
  top: "P6_mbox_loc"
  param {
    lr_mult: 1.0
    decay_mult: 1.0
  }
  convolution_param {
    num_output: 12
    pad: 1
    kernel_size: 3
    stride: 1
    weight_filler {
      type: "xavier"
    }
    bias_filler {
      type: "constant"
      value: 0.0
    }
  }
}
layer {
  name: "P6_mbox_loc_perm"
  type: "Permute"
  bottom: "P6_mbox_loc"
  top: "P6_mbox_loc_perm"
  permute_param {
    order: 0
    order: 2
    order: 3
    order: 1
  }
}
layer {
  name: "P6_mbox_loc_flat"
  type: "Flatten"
  bottom: "P6_mbox_loc_perm"
  top: "P6_mbox_loc_flat"
  flatten_param {
    axis: 1
  }
}
layer {
  name: "P6_mbox_conf_face"
  type: "Convolution"
  bottom: "P6"
  top: "P6_mbox_conf"
  param {
    lr_mult: 1.0
    decay_mult: 1.0
  }
  convolution_param {
    num_output: 6
    pad: 1
    kernel_size: 3
    stride: 1
    weight_filler {
      type: "xavier"
    }
    bias_filler {
      type: "constant"
      value: 0.0
    }
  }
}
layer {
  name: "P6_mbox_conf_perm"
  type: "Permute"
  bottom: "P6_mbox_conf"
  top: "P6_mbox_conf_perm"
  permute_param {
    order: 0
    order: 2
    order: 3
    order: 1
  }
}
layer {
  name: "P6_mbox_conf_flat"
  type: "Flatten"
  bottom: "P6_mbox_conf_perm"
  top: "P6_mbox_conf_flat"
  flatten_param {
    axis: 1
  }
}
layer {
  name: "P7_mbox_loc"
  type: "Convolution"
  bottom: "P7"
  top: "P7_mbox_loc"
  param {
    lr_mult: 1.0
    decay_mult: 1.0
  }
  convolution_param {
    num_output: 12
    pad: 1
    kernel_size: 3
    stride: 1
    weight_filler {
      type: "xavier"
    }
    bias_filler {
      type: "constant"
      value: 0.0
    }
  }
}
layer {
  name: "P7_mbox_loc_perm"
  type: "Permute"
  bottom: "P7_mbox_loc"
  top: "P7_mbox_loc_perm"
  permute_param {
    order: 0
    order: 2
    order: 3
    order: 1
  }
}
layer {
  name: "P7_mbox_loc_flat"
  type: "Flatten"
  bottom: "P7_mbox_loc_perm"
  top: "P7_mbox_loc_flat"
  flatten_param {
    axis: 1
  }
}
layer {
  name: "P7_mbox_conf_face"
  type: "Convolution"
  bottom: "P7"
  top: "P7_mbox_conf"
  param {
    lr_mult: 1.0
    decay_mult: 1.0
  }
  convolution_param {
    num_output: 6
    pad: 1
    kernel_size: 3
    stride: 1
    weight_filler {
      type: "xavier"
    }
    bias_filler {
      type: "constant"
      value: 0.0
    }
  }
}
layer {
  name: "P7_mbox_conf_perm"
  type: "Permute"
  bottom: "P7_mbox_conf"
  top: "P7_mbox_conf_perm"
  permute_param {
    order: 0
    order: 2
    order: 3
    order: 1
  }
}
layer {
  name: "P7_mbox_conf_flat"
  type: "Flatten"
  bottom: "P7_mbox_conf_perm"
  top: "P7_mbox_conf_flat"
  flatten_param {
    axis: 1
  }
}
layer {
  name: "odm_loc"
  type: "Concat"
  bottom: "P3_mbox_loc_flat"
  bottom: "P4_mbox_loc_flat"
  bottom: "P5_mbox_loc_flat"
  bottom: "P6_mbox_loc_flat"
  bottom: "P7_mbox_loc_flat"
  top: "odm_loc"
  concat_param {
    axis: 1
  }
}
layer {
  name: "odm_conf"
  type: "Concat"
  bottom: "P3_mbox_conf_flat"
  bottom: "P4_mbox_conf_flat"
  bottom: "P5_mbox_conf_flat"
  bottom: "P6_mbox_conf_flat"
  bottom: "P7_mbox_conf_flat"
  top: "odm_conf"
  concat_param {
    axis: 1
  }
}
layer {
  name: "arm_conf_reshape"
  type: "Reshape"
  bottom: "arm_conf"
  top: "arm_conf_reshape"
  reshape_param {
    shape {
      dim: 0
      dim: -1
      dim: 2
    }
  }
}
layer {
  name: "arm_conf_softmax"
  type: "Softmax"
  bottom: "arm_conf_reshape"
  top: "arm_conf_softmax"
  softmax_param {
    axis: 2
  }
}
layer {
  name: "arm_conf_flatten"
  type: "Flatten"
  bottom: "arm_conf_softmax"
  top: "arm_conf_flatten"
  flatten_param {
    axis: 1
  }
}
layer {
  name: "odm_conf_reshape"
  type: "Reshape"
  bottom: "odm_conf"
  top: "odm_conf_reshape"
  reshape_param {
    shape {
      dim: 0
      dim: -1
      dim: 2
    }
  }
}
layer {
  name: "odm_conf_softmax"
  type: "Softmax"
  bottom: "odm_conf_reshape"
  top: "odm_conf_softmax"
  softmax_param {
    axis: 2
  }
}
layer {
  name: "odm_conf_flatten"
  type: "Flatten"
  bottom: "odm_conf_softmax"
  top: "odm_conf_flatten"
  flatten_param {
    axis: 1
  }
}
layer {
  name: "detection_out"
  type: "DetectionOutput"
  bottom: "odm_loc"
  bottom: "odm_conf_flatten"
  bottom: "arm_priorbox"
  bottom: "arm_conf_flatten"
  bottom: "arm_loc"
  bottom: "data"
  top: "detection_out"
    detection_output_param {
    num_classes: 2
    share_location: true
    background_label_id: 0
    nms_param {
      nms_threshold: 0.3
      top_k: 500
    }
    code_type: CENTER_SIZE
    keep_top_k: 500
    confidence_threshold: 0.3
    objectness_score: 0.01
    visualize_threshold: 0.5
  }
}
